…
model.add(layers.MaxPooling2D((2, 2)))
model.add(layers.Conv2D(64, (3, 3), activation='relu'))
model.add(layers.MaxPooling2D((2, 2)))
model.add(layers.Conv2D(64, (3, 3), activation='relu'))
      model.summary()
	model.add(layers.Flatten())
model.add(layers.Dense(64, activation='relu'))
model.add(layers.Dense(10))
model.summary()

Output

Model: "sequential"
_________________________________________________________________
 Layer (type)                Output Shape              Param #   
=================================================================
 conv2d (Conv2D)             (None, 30, 30, 32)        896                                                                        
 max_pooling2d (MaxPooling2D  (None, 15, 15, 32)       0         
 )                                                                                                                         
 conv2d_1 (Conv2D)           (None, 13, 13, 64)        18496                                                                 
 max_pooling2d_1 (MaxPooling  (None, 6, 6, 64)         0         
 2D)                                                                                                                         
 conv2d_2 (Conv2D)           (None, 4, 4, 64)          36928                                                                
 flatten (Flatten)           (None, 1024)              0                                                                   
 dense (Dense)               (None, 64)                65600                                                      
 dense_1 (Dense)             (None, 10)                650                                                               
=================================================================
Total params: 122,570
Trainable params: 122,570
Non-trainable params: 0

model.compile(optimizer='adam',
              loss=tf.keras.losses.SparseCategoricalCrossentropy(from_logits=True),
              metrics=['accuracy'])
history = model.fit(train_images, train_labels, epochs=5, 
…
